…
                                           [0, 0, 0, 0, 0, 0, 0, 0, 0, 0, 0, 0, 0, 0, 0, 0, 0, 0, 0, 0, 1, 0, 0, 0, 0, 0, 0, 0, 0, 0, 0, 0, 0, 0, 0, 0, 0, 0, 0, 0, 0, 0, 0, 0, 0, 0, 0, 0, 0, 0, 0, 0, 0, 0, 0, 0, 0, 0, 0, 0, 0, 0, 0, 0, 0, 0, 0, 0, 0, 0, 0, 0, 0, 0, 0, 0, 0, 0, 0, 0, 0, 0, 0, 0, 0, 0, 0, 0, 0, 0, 0, 0, 0, 0, 0, 0, 0, 0, 0, 0, ...]

[753 rows x 5 columns]
_________________________________________________________________
Layer (type)                 Output Shape              Param #   
=================================================================
embedding (Embedding)        (None, 200, 100)          646500    
_________________________________________________________________
dropout (Dropout)            (None, 200, 100)          0         
_________________________________________________________________
conv1d (Conv1D)              (None, 196, 64)           32064     
_________________________________________________________________
max_pooling1d (MaxPooling1D) (None, 49, 64)            0         
_________________________________________________________________
bidirectional (Bidirectional (None, 49, 128)           66048     
_________________________________________________________________
bidirectional_1 (Bidirection (None, 64)                41216     
_________________________________________________________________
dense (Dense)                (None, 64)                4160      
_________________________________________________________________
dropout_1 (Dropout)          (None, 64)                0         
_________________________________________________________________
dense_1 (Dense)              (None, 2224)              144560    
=================================================================
Total params: 934,548
Trainable params: 934,548
Non-trainable params: 0
_________________________________________________________________
None
Train on 369 samples, validate on 158 samples
Epoch 1/500
 - 5s - loss: 49.2363 - acc: 0.0081 - val_loss: 43.3779 - val_acc: 0.0127
Epoch 2/500
 - 2s - loss: 48.6489 - acc: 0.0136 - val_loss: 43.8135 - val_acc: 0.0127
…
