Already have data, run deep model directly...
Input data text is a list of text with length  138
labels has length  138  each label has  99  classes.
padding_length is  45558
vocab_size is  22293
Model: "sequential"
_________________________________________________________________
Layer (type)                 Output Shape              Param #   
=================================================================
embedding (Embedding)        (None, 45558, 100)        2229400   
_________________________________________________________________
conv1d (Conv1D)              (None, 45554, 64)         32064     
_________________________________________________________________
max_pooling1d (MaxPooling1D) (None, 11388, 64)         0         
_________________________________________________________________
bidirectional (Bidirectional (None, 11388, 32)         10368     
_________________________________________________________________
bidirectional_1 (Bidirection (None, 594)               784080    
_________________________________________________________________
dense (Dense)                (None, 198)               117810    
_________________________________________________________________
dense_1 (Dense)              (None, 99)                19701     
=================================================================
Total params: 3,193,423
Trainable params: 3,193,423
Non-trainable params: 0
_________________________________________________________________
None
Train on 97 samples, validate on 41 samples
Epoch 1/100
97/97 - 388s - loss: 4.5978 - acc: 0.0206 - val_loss: 4.5992 - val_acc: 0.0488
Epoch 2/100
97/97 - 353s - loss: 4.5879 - acc: 0.0206 - val_loss: 4.6094 - val_acc: 0.0000e+00
…
